AI-Based-CPU-Scheduler-main/approach3/rl_scheduler_model/policy.pth (torch, 41074 bytes, 11 tensors)

mlp_extractor.policy_net.0.weight f4 [64, 4]
0	0xbe062817	-0.1310123
1	0xbdd46b0c	-0.1037198
2	0xbcf007cf	-0.029300598
3	0xbda79f66	-0.081847
4	0xbd559ec3	-0.05215336
5	0x3e89ab4b	0.268885
6	0xbde16532	-0.110056296
7	0x3d9f4992	0.07777704
8	0xbd468aab	-0.048472088
9	0x3e949cc6	0.2902586
10	0x3de4b569	0.11167414
11	0x3cf74778	0.030185446
12	0xbda7bdb7	-0.08190482
13	0xbe564d15	-0.20927842
14	0xbe2830d2	-0.16424873
15	0xbde49b9a	-0.11162491
16	0xbe54f4a9	-0.20796455
17	0x3c865c9c	0.016401581
18	0x3e216dfb	0.1576461
19	0x3e54fe4c	0.20800132
20	0xbde59c54	-0.11211458
21	0x3d259dd6	0.040433727
22	0xbc2bb254	-0.010479528
23	0x3dccfb69	0.1000889
24	0x3ddcad2c	0.107752174
25	0xbd06f01c	-0.03294383
26	0x3db5e16f	0.08880889
27	0xbe85128c	-0.25990713
28	0xbd087b21	-0.03332055
29	0x3e9fd2fc	0.31215656
30	0x3e6d44df	0.23170803
31	0xbd927b7b	-0.07152458
32	0x3ca1725a	0.019707847
33	0x3e83b8cb	0.25726923
34	0x3e97973c	0.2960757
35	0xbc849536	-0.01618443
36	0x3e0b1229	0.13581146
37	0x3e0e6d7d	0.13908954
38	0xbe83df07	-0.25756094
39	0xbe8b0365	-0.27151027
40	0xbe07406b	-0.13208167
41	0x3bd3d531	0.0064646234
42	0x3dbdf5ba	0.09275384
43	0x3dbaa95f	0.09114336
44	0xbd21845a	-0.03943286
45	0x3ed71f82	0.42016226
46	0x3d05208a	0.032501735
47	0x3b0d5aeb	0.0021569084
48	0xbddd9e4d	-0.10821209
49	0x3d314205	0.04327585
50	0xbd2dbc0f	-0.042415675
51	0x3ddeac8a	0.10872753
52	0xbd82ec6a	-0.06392749
53	0x3dd495df	0.10380148
54	0x3e5011f6	0.20319352
55	0xbe4da8fe	-0.20083997
56	0x3e90eb62	0.28304583
57	0x3d7200e2	0.059082873
58	0x3d7cd0d0	0.061722577
59	0x3c49798b	0.0122970445
60	0xbe40a4b9	-0.18812837
61	0xbc3e08d5	-0.011598785
62	0x3e2196ad	0.15780134
63	0x3e3f18cf	0.18661807
64	0x3e49ed40	0.1971941
65	0x3dff2d4a	0.1245981
66	0x3dc9879b	0.09840318
67	0xbe4267bf	-0.18984888
68	0xbe3b61e6	-0.18299064
69	0xbbaf0225	-0.005340832
70	0x3de0f8aa	0.10984929
71	0x3ebabb55	0.36471048
72	0xbe5296ba	-0.2056531
73	0x3e02ab7f	0.12760733
74	0xbe1b1979	-0.15146436
75	0xbdab91bd	-0.08377407
76	0x3e77c82a	0.2419745
77	0xbe50e62c	-0.20400304
78	0x3d990175	0.07470981
79	0xbea43168	-0.32068944
80	0xbdf537f6	-0.11973564
81	0xbe04bfb9	-0.12963761
82	0x3cd71857	0.026256723
83	0xbd7ffbc3	-0.062495958
84	0xbe3ed622	-0.18636373
85	0x3d308eaf	0.043104824
86	0x3e0b250a	0.13588348
87	0x3ee1f83d	0.44134703
88	0x3e1c9318	0.15290487
89	0xbe729045	-0.23687847
90	0x3e1a9133	0.15094452
91	0xbdc286c8	-0.09498364
92	0xbda308cd	-0.07960663
93	0xbd747055	-0.05967744
94	0x3d6540fb	0.055970173
95	0x3e66db54	0.22544605
96	0x3db54129	0.08850319
97	0x3e1125b4	0.14174539
98	0x3e1cc3e4	0.15309101
99	0x3cb5e159	0.02220218
100	0xbe81fa6d	-0.25386372
101	0x3d8a06fa	0.06739612
102	0x3de62b75	0.112387575
103	0x3d7497dc	0.059715137
104	0xbc07c018	-0.008285545
105	0xbcb0ddcc	-0.021590136
106	0x3ea7497a	0.32673246
107	0xbe458a84	-0.19291121
108	0x3e88c3d3	0.26711902
109	0x3d60e255	0.054903347
110	0x3dca8a6c	0.09889683
111	0x3d6bf19d	0.057603467
112	0x3d74bf84	0.059752956
113	0x3da6583a	0.08122297
114	0x3d420b58	0.0473741
115	0xbe8b19ef	-0.27168223
116	0xbe980392	-0.29690224
117	0x3d606d0f	0.054791506
118	0xbe3b158e	-0.18269941
119	0xbd8f961d	-0.07011054
120	0x3d6646ac	0.05621974
121	0x3e927277	0.28602955
122	0x3e0c7fc8	0.1372062
123	0xbe291dc3	-0.1651526
124	0xbda616d1	-0.08109821
125	0x3937a0e5	0.00017512178
126	0x3ecfa35d	0.40554324
127	0xbd77a977	-0.06046435
128	0xbeabf4dd	-0.33585253
129	0xbe392338	-0.18079841
130	0x3c218758	0.009858929
131	0xbe0627b3	-0.13101082
132	0xbca82aeb	-0.020528277
133	0xbe7d70b8	-0.2475003
134	0xbe07bb13	-0.13254957
135	0xbe8853d0	-0.26626444
136	0xbd8663c5	-0.06561998
137	0xbce0c8c1	-0.027439477
138	0xbec96228	-0.393327
139	0xbec292c7	-0.38002607
140	0xbc4a9af3	-0.012366044
141	0xbdf81805	-0.12113956
142	0xbe67adbc	-0.22624868
143	0xbe731ca3	-0.23741393
144	0xbece2c96	-0.4026839
145	0xbeb5b0cf	-0.35486457
146	0xbdde74d9	-0.10862131
147	0xbe321685	-0.17391403
148	0xbe5ca6fe	-0.21548077
149	0x3e9f08bd	0.31061354
150	0xbec413ca	-0.38296348
151	0xbea34ca9	-0.31894425
152	0x3d836d85	0.064173736
153	0xbe57f8f2	-0.21091059
154	0xbe0b1fba	-0.13586321
155	0xbdb5f03c	-0.08883712
156	0xbe7d28c9	-0.2472259
157	0x3db6ffb0	0.08935487
158	0x3e4070c6	0.1879302
159	0xbeae8b96	-0.3409087
160	0x3dc796f4	0.09745589
161	0x3e9ea9b1	0.3098884
162	0x3de33328	0.11093742
163	0x3b38649b	0.0028136137
164	0x3e9ed35c	0.3102063
165	0x3d47656f	0.04868072
166	0x3e3d6458	0.1849531
167	0x3d801e85	0.06255821
168	0x3e43ddd7	0.19127594
169	0x3d036aa9	0.03208414
170	0xbe436a53	-0.19083528
171	0x3e6417e5	0.2227474
172	0xbe84fbeb	-0.25973448
173	0x3d1c09c9	0.03809527
174	0xbe014bb3	-0.12626533
175	0x3e2c3c7a	0.16819945
176	0xbe3ab7e1	-0.18234207
177	0xbb7c0d87	-0.0038460211
178	0x3c691596	0.014226338
179	0x3e0dcde9	0.1384808
180	0x3e609993	0.21933584
181	0x3d2e6ba5	0.042583127
182	0xbe7f7447	-0.249467
183	0x3def5d12	0.11687674
184	0x3d3d0f89	0.046157394
185	0xbee3a636	-0.44462746
186	0x3e52165c	0.20516342
187	0x3d80bae6	0.06285648
188	0xbe33e40b	-0.1756746
189	0x3db2a91c	0.08723661
190	0xbdaac39b	-0.0833809
191	0xbe99a17d	-0.30006018
192	0x3ddb8c5c	0.10720131
193	0x3bdf0bea	0.00680684
194	0xbe02a27a	-0.12757292
195	0x3e3f4ecd	0.18682404
196	0x3d0cf1c1	0.034410242
197	0x3e69ef03	0.22845082
198	0xbeb3b014	-0.35095274
199	0x3e0e654b	0.13905828
200	0x3cf2b2b1	0.029626222
201	0x3e667e72	0.22509173
202	0x3e9ada8e	0.3024487
203	0x3d1a07a2	0.037604935
204	0xbd1d5e65	-0.0384201
205	0xbca14d25	-0.019690106
206	0x3ead0221	0.33790687
207	0xbdcdcfa5	-0.10049371
208	0x3e4c9507	0.19978724
209	0x3d12672d	0.035742927
210	0x3d08b6c7	0.033377435
211	0x3de540e0	0.111940145
212	0x3e187ec6	0.1489211
213	0xbe22eae3	-0.15909915
214	0xbe5394d6	-0.20662245
215	0x3e62dc5e	0.22154376
216	0xbe670d07	-0.22563563
217	0xbceba18b	-0.028763553
218	0x3d8a4caf	0.067529075
219	0xbdb5dc02	-0.08879854
220	0xbd3821e8	-0.04495421
221	0x3bbd4e70	0.0057771727
222	0x3ea75701	0.32683566
223	0xbe130486	-0.14357194
224	0x3e107345	0.14106472
225	0xbee65099	-0.44983366
226	0xbcb255ec	-0.021769486
227	0x3de24394	0.11048046
228	0x3e02358d	0.1271574
229	0x3e5de1a8	0.21668112
230	0x3df05c5e	0.11736368
231	0x3cc05cab	0.023481688
232	0x3d568497	0.05237254
233	0xbe4d9e5b	-0.20079939
234	0xbe883dd3	-0.26609668
235	0xbe2c4c17	-0.16825901
236	0x3da1cc93	0.079003476
237	0x3df206ed	0.11817727
238	0xbeea7f6b	-0.45800337
239	0x3e3b4784	0.18289
240	0x3dd4531b	0.103674136
241	0xbd46b113	-0.048508715
242	0xbaab65f5	-0.001307665
243	0xbde12cbd	-0.10994861
244	0x3f028e15	0.5099805
245	0xbe3b3bb0	-0.18284488
246	0x3e3f4de6	0.1868206
247	0xbea032b5	-0.31288686
248	0xbdf2e016	-0.11859147
249	0xbde83789	-0.113387175
250	0x3da4f954	0.08055368
251	0xbdcc7c96	-0.099847004
252	0x3d9e8a75	0.07741252
253	0xbc8a7129	-0.016899662
254	0xbd5e2c55	-0.054241497
255	0xbd50579e	-0.05086481

mlp_extractor.policy_net.0.bias f4 [64]
0	0xbc57c570	-0.013169631
1	0xbc64fed6	-0.013976773
2	0xbb473ccc	-0.0030401228
3	0xbb6ab994	-0.003581618
4	0x3d61377e	0.054984562
5	0x3cb685a4	0.022280522
6	0xbc559128	-0.013035096
7	0x3c12e786	0.008966332
8	0x3af5a80d	0.00187421
9	0xbc8c4536	-0.017122846
10	0x3c1bf03b	0.009517725
11	0x3bae80f6	0.005325432
12	0x3b9818e5	0.0046416395
13	0x3b396f59	0.0028295128
14	0x3c9b9015	0.018989602
15	0x3d369155	0.044572193
16	0xbb3e2df9	-0.00290191
17	0x3caaecb7	0.020864828
18	0xbc90187f	-0.017589806
19	0xbcfe7857	-0.031063242
20	0xbce0e6cd	-0.027453804
21	0x3c207bfd	0.009795186
22	0xbcf39bed	-0.029737437
23	0x3c91d76a	0.017802913
24	0x3ca02a60	0.019551456
25	0x3d14df39	0.036345694
26	0xbcfc6754	-0.03081099
27	0x3caa37c7	0.02077855
28	0xbd0a9466	-0.03383293
29	0xbc11b7c5	-0.008893912
30	0xbbb255c8	-0.005442355
31	0x3c3b4dcf	0.011432125
32	0xbcb88e63	-0.022528833
33	0xbc925c7b	-0.017866364
34	0xba698048	-0.000890736
35	0xbb35e850	-0.0027756877
36	0xbb72f12a	-0.0037070015
37	0xbc7d1ca4	-0.015448723
38	0xbbac9d96	-0.005267809
39	0x3c8baa36	0.017048936
40	0x3be71f01	0.0070532565
41	0x3bfea62d	0.0077712745
42	0xbb7f2250	-0.0038930364
43	0x3c1e89a6	0.009676373
44	0x3ca97a35	0.020688156
45	0x3c588afa	0.013216728
46	0xbb64f2d6	-0.003493478
47	0xbc43881b	-0.011934306
48	0xbbb4cd85	-0.005517664
49	0xbb23ab3c	-0.002497389
50	0xb91470dd	-0.00014156425
51	0xbc80cb58	-0.015721962
52	0x39a5ce88	0.0003162513
53	0x3c26b3ba	0.010174686
54	0x3b1c3cf0	0.0023840033
55	0xbc3faa7a	-0.01169836
56	0xbcdce2c3	-0.026963597
57	0x3c9393bd	0.018014783
58	0xb9849a88	-0.00025292137
59	0xbc326b79	-0.010889881
60	0xbd1b0e56	-0.03785547
61	0xbc87fa4d	-0.016598845
62	0xba3cf373	-0.00072079076
63	0xbc55f00a	-0.013057718

mlp_extractor.policy_net.2.weight f4 [64, 64]
0	0xbd0e8484	-0.034794345
1	0xbd197a5c	-0.037470207
2	0x3ecb4949	0.3970435
3	0xbe45924f	-0.19294094
4	0xbdda0eac	-0.1064733
5	0xbe1ee03a	-0.15515223
6	0xbe048c2a	-0.12944093
7	0x3e4e6ae8	0.20157969
8	0x3e156cca	0.14592281
9	0x3e6d2074	0.23156911
10	0xbe491ad0	-0.19639134
11	0xbd2f224f	-0.04275733
12	0x3d32610e	0.04354959
13	0xbe2edcea	-0.1707646
14	0x3dececd4	0.11568609
15	0xbdfe5831	-0.12419165
16	0x3dc4aa5a	0.096028045
17	0x3ea48003	0.32128915
18	0x3d828d0c	0.06374559
19	0xbe098980	-0.13431358
20	0xbca148c9	-0.019688027
21	0x3e5c819b	0.21533816
22	0x3e43686e	0.19082806
23	0xbc7187ac	-0.014741819
24	0xbe76ec5f	-0.24113606
25	0x3dd144fc	0.10218236
26	0x3e1c3cb1	0.15257527
27	0x3e496251	0.19666411
28	0xbe5523ca	-0.20814434
29	0x3eb860bf	0.3601131
30	0x3d2245c4	0.039617315
31	0x3e095bab	0.13413875
32	0x3dc05117	0.09390467
33	0x3c341d84	0.010993365
34	0x3e9200a3	0.2851611
35	0x3d37f0b9	0.044907305
36	0x3d232a1b	0.039835077
37	0x3e052b6a	0.13004842
38	0xbdb67fb8	-0.08911079
39	0xbdb8cf1a	-0.090238765
40	0xbd990c86	-0.07473092
41	0xbd70e20f	-0.058809336
42	0x3e939d9b	0.2883118
43	0xbd30b5df	-0.043142196
44	0x3d778b02	0.060435303
45	0xbe19fd5b	-0.15038054
46	0xbeb80730	-0.35942984
47	0xbd2cb362	-0.04216326
48	0x3e6b6a9a	0.22989884
49	0xbe9ab18a	-0.30213577
50	0xbd13f131	-0.03611869
51	0x3cadb05d	0.02120226
52	0xbebbc3ee	-0.3667292
53	0x3e1ac170	0.15112853
54	0xbcdf0272	-0.027222846
55	0xbe55d40d	-0.20881672
56	0xbdf126a7	-0.117749505
57	0xbdf8affd	-0.12142942
58	0xbdb15780	-0.086592674
59	0xbe2c45c6	-0.16823491
60	0xbecf80a5	-0.40527835
61	0x3dcc0ce7	0.099633984
62	0xbe302fb8	-0.17205703
63	0xbd9b69bb	-0.07588526
64	0xbde684b2	-0.11255778
65	0x3e2d5777	0.16927896
66	0x3d88494b	0.066546045
67	0x3e6ec49d	0.2331719
68	0x3e03289b	0.12808459
69	0x3e1f4618	0.15554082
70	0xbe12f5a8	-0.14351523
71	0xbd79a6d6	-0.060950123
72	0xbe8e1fd2	-0.27758652
73	0xbe0db2b4	-0.13837701
74	0x3e1e6648	0.15468705
75	0xbe6825a9	-0.22670616
76	0xbe714ece	-0.23565218
77	0x3d5b6cd4	0.053570583
78	0xbebbaa58	-0.366534
79	0x3bc859a3	0.006114201
80	0xbdf8b082	-0.12143041
81	0x3d8e2fe7	0.069427304
82	0xbcee4820	-0.029087126
83	0xbb0911b4	-0.0020915093
84	0xbe4bc6ea	-0.19900098
85	0x3e78deac	0.24303693
86	0x3c395c16	0.011313459
87	0x3e95ca73	0.2925602
88	0x3da4f06b	0.080536686
89	0x3e25216e	0.16126034
90	0xbde8e1a3	-0.11371162
91	0x3e5eabb8	0.21745193
92	0x3d0aa866	0.033852004
93	0xbe1fbe0d	-0.15599842
94	0xbe474124	-0.19458443
95	0x3dcdf9ac	0.10057387
96	0xbec75dd4	-0.38938773
97	0xbd41c0be	-0.047302954
98	0x3e06ce1a	0.13164559
99	0x3d955f55	0.07293574
100	0xbdd3b367	-0.10336953
101	0x3ec75982	0.38935477
102	0x3e10885a	0.14114514
103	0xbdb6542a	-0.08902772
104	0x3e5905c1	0.21193601
105	0x3e2a1962	0.16611245
106	0x3c5a63aa	0.013329426
107	0x3d90b0a8	0.070649445
108	0x3d95fa2e	0.073231086
109	0x3d35b944	0.044366136
110	0x3e7826e3	0.24233584
111	0xbd215045	-0.03938319
112	0x3eee505c	0.46545684
113	0xbdf55ec0	-0.11980963
114	0x3dd3eaf8	0.10347551
115	0xbdc56358	-0.09638089
116	0xbe1c2930	-0.15250087
117	0xbe3d7cc1	-0.18504621
118	0x3c8b78e3	0.017025417
119	0x3e43cb82	0.19120601
120	0xbe631fb1	-0.22180058
121	0x3d73e08d	0.05954032
122	0xbe15719c	-0.1459412
123	0xbe5baca0	-0.2145257
124	0xbe7c3497	-0.24629436
125	0xbe9cab66	-0.30599517
126	0x3cd06930	0.025440782
127	0xbcc6ff6f	-0.024291722
128	0x3e195a17	0.14975773
129	0x3e96afa4	0.29430878
130	0x3e0feb1d	0.14054532
131	0x3dee99ce	0.1165043
132	0x3d971f62	0.07379033
133	0x3d79ea5c	0.06101452
134	0x3e8e8c58	0.2784145
135	0x3eab4e2c	0.33458078
136	0xbcc90b9b	-0.024541667
137	0x3d95661d	0.07294867
138	0x3e1444ed	0.14479418
139	0xbe961cde	-0.293189
140	0xbe412f1e	-0.1886563
141	0x3df5a2ee	0.11993967
142	0xbbb1e45e	-0.005428835
143	0xbe40a778	-0.18813884
144	0xbde870e3	-0.113496564
145	0xbca3d309	-0.01999809
146	0x3e9150d5	0.28381982
147	0x3d541f37	0.05178758
148	0xbeee994f	-0.4660134
149	0x3e8ea019	0.2785652
150	0xbcafc1dd	-0.021454746
151	0xbe9228bc	-0.28546703
152	0x3e1674fc	0.14693063
153	0xbe9cabf0	-0.30599928
154	0xba258ccd	-0.00063152314
155	0x3da355a0	0.07975316
156	0xbc11a8ff	-0.008890389
157	0xbdf9a21d	-0.12189124
158	0xbe6d4a42	-0.23172858
159	0xbe37c823	-0.1794744
160	0x3e38a3ed	0.18031283
161	0x3d4061b8	0.04696819
162	0x3e1cbaa3	0.15305571
163	0xbdb37c3a	-0.08763929
164	0x3de589e3	0.112079404
165	0xbe72d308	-0.23713315
166	0xbe292d40	-0.16521168
167	0x3e26d6f5	0.16292937
168	0x3dd8bda5	0.10583047
169	0xbd5c18ae	-0.053734474
170	0xbb9d2d5c	-0.004796667
171	0xbe4532d2	-0.19257668
172	0xbd76a1ee	-0.060213022
173	0xbc5a81ab	-0.013336579
174	0xbdf389e6	-0.118915364
175	0x3e00a3ac	0.12562436
176	0x3b993764	0.0046757925
177	0x3e3f72c0	0.18696117
178	0x3e93492b	0.2876676
179	0x3e10aa7b	0.14127533
180	0xbdfba250	-0.12286818
181	0xbe07daa3	-0.13266997
182	0xbe17caa4	-0.14823395
183	0xbe6a2b97	-0.2286819
184	0x3e8fb444	0.2806722
185	0x3e077242	0.1322718
186	0xbe383918	-0.1799053
187	0x3e69b69c	0.22823566
188	0xbda6c8e0	-0.081437826
189	0xbe471bcd	-0.19444199
190	0xbdb6de18	-0.0892908
191	0xbe12ca82	-0.14335063
192	0xbc09123a	-0.008366162
193	0x3e99e816	0.3005988
194	0xbe3b166f	-0.18270276
195	0x3b001448	0.0019543339
196	0x3e8003d3	0.25002918
197	0xbd84b374	-0.064795405
198	0xbc5542db	-0.013016428
199	0x3eae4ac4	0.34041417
200	0xbd8e1cd1	-0.0693909
201	0x3db2da09	0.08732993
202	0x3de027ad	0.109450676
203	0x3e8e2ca7	0.27768442
204	0x3e53450f	0.20631813
205	0x3e2511c7	0.16120063
206	0xbc0f8e60	-0.008761972
207	0x3e4dbaaa	0.20090738
208	0xbdc724ba	-0.09723802
209	0xbdd30a3c	-0.103046864
210	0xbde11ca1	-0.10991789
211	0xbc258976	-0.010103574
212	0x3ce18061	0.027527036
213	0x3e2ebcd4	0.1706422
214	0x3da3011a	0.079591945
215	0x3e1de568	0.15419543
216	0x3d57fcf8	0.052731484
217	0x3c879a01	0.016552927
218	0xbde1bcd1	-0.11022342
219	0xbec3d42c	-0.38247812
220	0x3d0d9d90	0.03457409
221	0xbebf8fc6	-0.37414378
222	0x3e9c6b4a	0.30550605
223	0xbcb1a436	-0.021684747
224	0x3dc64a94	0.096821934
225	0xbec38b69	-0.381923
226	0x3dd4714e	0.10373174
227	0xbe117b10	-0.14207101
228	0x3e61d109	0.22052397
229	0x3d67b2f2	0.05656714
230	0x3e0889aa	0.13333765
231	0x3dbd54d7	0.092446975
232	0xbe2cca07	-0.16873942
233	0xbdaedc89	-0.085381575
234	0x3e184523	0.14870124
235	0x3dcbaa6f	0.09944617
236	0x3e25c1b9	0.1618718
237	0xbe7264de	-0.2367129
238	0xbe807c74	-0.2509495
239	0x3c528eaa	0.012851397
240	0xbdd78ad0	-0.10524523
241	0xbe013a2f	-0.12619852
242	0x3e986302	0.29763037
243	0xbe3017b1	-0.17196538
244	0x3e1eb32d	0.15498038
245	0x3d41f175	0.047349412
246	0x3e3bb239	0.18329705
247	0x3c9d82b5	0.019227365
248	0xbe158aed	-0.14603777
249	0x3dc31913	0.09526267
250	0x3cd19394	0.025583066
251	0xbe715b78	-0.23570049
252	0xbe67d19f	-0.22638558
253	0xbe827f4b	-0.25487742
254	0xbec1c494	-0.3784529
255	0xbe35e129	-0.17761673

mlp_extractor.policy_net.2.bias f4 [64]
0	0x3bad5151	0.0052892347
1	0x3c8bba60	0.017056644
2	0x3c574b71	0.013140545
3	0x3c97f468	0.01854916
4	0x3c9084b7	0.017641408
5	0xbbf33502	-0.0074220905
6	0xbc1d6627	-0.009606875
7	0x3c26d904	0.0101835765
8	0x3c4b9fbc	0.01242822
9	0xbb085d68	-0.0020807628
10	0x3ca299fb	0.019848814
11	0x3cde0bbd	0.027105207
12	0x3c812c18	0.015768096
13	0xbca08d2b	-0.019598564
14	0x3cad84c8	0.02118148
15	0x3c86f253	0.016472971
16	0x3c812f7f	0.015769718
17	0xbc530d6a	-0.012881616
18	0xbc35b24b	-0.011089872
19	0xbc952074	-0.018203951
20	0xbc4b5225	-0.0124097215
21	0xb92fe730	-0.00016775425
22	0xbcd132f8	-0.025537
23	0x3ca82e81	0.020529987
24	0xbc5729dd	-0.01313254
25	0xbca1454c	-0.019686364
26	0xbc8008b8	-0.015629157
27	0x3c1eaca6	0.009684717
28	0xbc2cfcde	-0.010558335
29	0x3bddfa59	0.0067742285
30	0xbcd199cb	-0.02558603
31	0xbbb8e89d	-0.005642964
32	0xbcc42e25	-0.023947785
33	0xbcc49b5a	-0.023999859
34	0x3c907ff0	0.01763913
35	0xbc34fa6b	-0.011046032
36	0xba689d0e	-0.00088735006
37	0xbba1dfa0	-0.0049399883
38	0xbb7ebf32	-0.0038871286
39	0x3ad90dc7	0.0016559892
40	0xbac924da	-0.0015346066
41	0x3c88257d	0.016619438
42	0x3c7ef100	0.015560389
43	0x39ce4674	0.00039343874
44	0x3c8cefcd	0.01720419
45	0x3c91d449	0.01780142
46	0xbd288774	-0.041144803
47	0x3cee0a28	0.029057577
48	0x3c54117a	0.01294362
49	0xbc9e4e19	-0.01932435
50	0xbcf7480e	-0.030185726
51	0xbc929bf5	-0.017896632
52	0xbcaec60b	-0.021334669
53	0x3cc7a4a7	0.024370505
54	0xbcf37e14	-0.029723205
55	0xbc98d78d	-0.01865747
56	0x3d07bec7	0.033140924
57	0x3c128050	0.008941725
58	0xbca90969	-0.02063437
59	0xbc69848b	-0.014252792
60	0x3c108f2a	0.0088231955
61	0xbc52c3d1	-0.012864069
62	0x3d25cd1d	0.040478814
63	0xbb9fb563	-0.004873918

mlp_extractor.value_net.0.weight f4 [64, 4]
0	0x3ee9b93a	0.4564913
1	0xbd6c09bf	-0.057626482
2	0x3e987636	0.29777688
3	0x3d8b30ee	0.06796442
4	0xbd1e885f	-0.038704272
5	0xbe336993	-0.17520742
6	0x3e18b024	0.14910942
7	0xbe1ed7f4	-0.15512067
8	0x3e58d773	0.21175937
9	0xbd912b99	-0.07088394
10	0xbecb4170	-0.39698362
11	0xbe4b14b3	-0.19832115
12	0xbdb7f840	-0.08982897
13	0xbe08e331	-0.13367917
14	0xbe8bc5df	-0.272994
15	0x3d123589	0.035695586
16	0x3b2ce1b5	0.002637965
17	0xbcd00cc8	-0.02539672
18	0xbd5ea4ea	-0.054356493
19	0xbb8d105f	-0.00430493
20	0xbe2f91d8	-0.17145479
21	0xbd072ee6	-0.03300371
22	0xbc8f9670	-0.017527789
23	0xbde89c49	-0.11357934
24	0xbc91dce8	-0.017805532
25	0xbd08f66d	-0.033438135
26	0xbdb0a527	-0.0862525
27	0xbea45789	-0.32098034
28	0xbda0e9fb	-0.07857128
29	0x3cc369ea	0.023854215
30	0xbeae673c	-0.34063137
31	0x3c1a87fc	0.009431835
32	0x3ddc0c0a	0.10744484
33	0xbbca46a3	-0.0061729713
34	0xbdf6b1b4	-0.12045613
35	0x3cb8fc73	0.022581315
36	0x3e1c563a	0.15267268
37	0xbd8c49e4	-0.06850031
38	0x3e8e36e3	0.2777625
39	0xbf013e5b	-0.5048577
40	0x3ec48ff3	0.38391075
41	0xbd98b703	-0.07456782
42	0xbd24c9d1	-0.04023153
43	0x3eaae4e4	0.33377755
44	0xbe3c0dd3	-0.18364649
45	0xbe866edf	-0.26256463
46	0x3d9ede09	0.077571936
47	0xbe4b129c	-0.19831318
48	0xbd224494	-0.039616182
49	0xbc1b8591	-0.009492294
50	0x3ea760d7	0.3269107
51	0xbbaa282d	-0.0051927776
52	0x3bc2125b	0.0059225983
53	0xbe6491e1	-0.22321273
54	0x3ded1dd3	0.11577954
55	0xbc217ac9	-0.009855934
56	0xbdf86b62	-0.12129857
57	0xbd089d4b	-0.03335313
58	0x3ea977c2	0.3309918
59	0xbca11e75	-0.019667843
60	0x3e208e50	0.15679288
61	0xbe140dc0	-0.1445837
62	0xbdbd82c0	-0.09253454
63	0xbeb05e12	-0.3444677
64	0xbecc9c45	-0.39962974
65	0xbebea4ca	-0.372351
66	0x3c6b85d8	0.014375173
67	0xbe0d3772	-0.13790682
68	0xbc5461e8	-0.012962796
69	0x3e5d3399	0.21601714
70	0xbd1ebede	-0.038756244
71	0xbbbb00a2	-0.0057068625
72	0x39ef9774	0.00045698474
73	0x3ed705a1	0.41996482
74	0x3e57cd16	0.21074328
75	0x3e369a45	0.17832287
76	0xbe6ee098	-0.23327863
77	0x3d0f8035	0.035034377
78	0x3ea5425d	0.32277194
79	0xbecff7da	-0.40618783
80	0xbeb2e8c3	-0.34943208
81	0xbe2d971b	-0.16952173
82	0xbe58c4ce	-0.21168825
83	0x3df833e5	0.12119273
84	0x3e2b1e2f	0.16710733
85	0x3c9ae272	0.018906806
86	0xbf36e4ac	-0.71442676
87	0x3c3dd8bf	0.011587321
88	0xbe848aba	-0.2588709
89	0x3c01ee81	0.007930399
90	0x3eae223b	0.3401049
91	0xbf154ba6	-0.58318555
92	0xbd57a22f	-0.052644905
93	0xbdf9f621	-0.122051485
94	0x3e116fb5	0.14202769
95	0x3d39859f	0.045293447
96	0x3e7b39bb	0.24533741
97	0xbd525d63	-0.05135859
98	0xbedc666e	-0.43046898
99	0xbbed7de9	-0.0072476757
100	0xbda0ca57	-0.07851093
101	0x3e881dbe	0.2658519
102	0x3e4b7e76	0.1987246
103	0xbba1489b	-0.0049219853
104	0xbdd0a8ed	-0.1018847
105	0xbde4b803	-0.1116791
106	0x3e776e0f	0.24163078
107	0xbe0226bb	-0.12710087
108	0xbe2028b1	-0.15640523
109	0x3e37a4e3	0.17933993
110	0x3db1973a	0.08671422
111	0xbf2c282f	-0.67248815
112	0x3db2e798	0.08735579
113	0x3ee17452	0.44034058
114	0x3f087af9	0.5331264
115	0x3e44a571	0.19203736
116	0xbea961f9	-0.3308256
117	0xbe64f559	-0.22359218
118	0xbe797910	-0.24362588
119	0xbe09ba84	-0.13450056
120	0xbe388c44	-0.18022257
121	0xbe5c730c	-0.21528262
122	0x3dba1823	0.09086635
123	0xbe5b499e	-0.21414801
124	0x3c843c21	0.016141953
125	0xbe0f3949	-0.13986696
126	0x3e3fda0c	0.18735522
127	0x3ef8c37a	0.48586637
128	0xbdf9e6e3	-0.12202241
129	0x3e253bba	0.16136065
130	0x3e8322ac	0.2561239
131	0xbd16e156	-0.03683599
132	0xbbceba11	-0.006308802
133	0xbe4dd807	-0.20101939
134	0x3e5c4842	0.21511939
135	0xbd4f2e60	-0.050581336
136	0xbee2e6a4	-0.4431659
137	0xbd47f52d	-0.048817802
138	0xbe49085c	-0.19632095
139	0xbe00c4d1	-0.1257508
140	0x3dd9487f	0.10609531
141	0x3c145ec6	0.009055799
142	0xbe5b223a	-0.21399775
143	0x3e7193ec	0.23591584
144	0xbe9124f7	-0.28348514
145	0x3c7dc7a0	0.015489489
146	0x3effcce3	0.49961004
147	0x3be0ee0c	0.006864315
148	0xbd862d92	-0.065516606
149	0x3ca86d20	0.020559847
150	0x3e5040b8	0.20337188
151	0xbc1f1443	-0.009709421
152	0xbe0ab4b9	-0.13545503
153	0x3c8ef5d8	0.017451212
154	0x3ed022e3	0.40651616
155	0x3b72da2b	0.0037056308
156	0x3a0dddb4	0.00054117595
157	0xbc9fddf1	-0.01951501
158	0xbdb26d4d	-0.08712254
159	0xba150687	-0.00056848716
160	0x3e775850	0.24154782
161	0x3e84ecd4	0.25961936
162	0x3da2e1d2	0.07953228
163	0x3e81225b	0.25221524
164	0xbd15b3d7	-0.03654846
165	0x3a9708f4	0.0011523054
166	0xbd7daa43	-0.061929952
167	0x3a4291da	0.0007422246
168	0x3cff09a4	0.031132527
169	0xbdcfab94	-0.10140148
170	0xbd64512e	-0.05574148
171	0x3ecdbda0	0.40183735
172	0xbec7dede	-0.39037222
173	0x3cf51b39	0.029920207
174	0xbea22e82	-0.31676108
175	0xbe8274b0	-0.2547965
176	0xbd8e041e	-0.06934379
177	0x3d841c8c	0.064507574
178	0x3e26fb7d	0.16306873
179	0xbb758bcd	-0.003746736
180	0xbea569f6	-0.32307404
181	0xbeb49c33	-0.3527542
182	0xbea1501c	-0.3150643
183	0xbdf0b2cd	-0.117528535
184	0x3e55ec4b	0.2089092
185	0x3d0bab6b	0.034099024
186	0xbd9070a9	-0.07052738
187	0x3e77afb0	0.24188113
188	0xbf065aa0	-0.5248203
189	0x3ca95305	0.02066947
190	0xbe97d192	-0.29652077
191	0xbdedcc54	-0.11611238
192	0x3e1cc38e	0.15308973
193	0xbd233da9	-0.039853726
194	0xbeb03882	-0.34418112
195	0xbc58f52c	-0.013242047
196	0x3d857959	0.06517286
197	0xbd078448	-0.033085138
198	0x3e924bf8	0.28573585
199	0xbc2b7d9f	-0.010466962
200	0x3e681736	0.22665104
201	0x3e7139ab	0.23557155
202	0x3d618207	0.055055644
203	0x3e9d6b1c	0.3074578
204	0xbee23fbf	-0.4418926
205	0x3b1ebd19	0.0024221598
206	0xbe7dd5c3	-0.24788575
207	0xbe65041b	-0.22364847
208	0xbd01e8f5	-0.031716306
209	0x3b56f16b	0.0032797705
210	0xbdd6d6bb	-0.10490175
211	0x3b564222	0.0032693227
212	0xbca3cf12	-0.0199962
213	0xbd9d0971	-0.076678164
214	0x3ed56d92	0.41685158
215	0xbe30c453	-0.17262392
216	0xbe899553	-0.26871738
217	0xbda25b72	-0.07927598
218	0xbcf9fa77	-0.030514939
219	0xbe93898c	-0.28815877
220	0x3dbc5154	0.091951996
221	0x3eb8c967	0.36091158
222	0x3d05ef31	0.032698814
223	0x3e3911d0	0.18073201
224	0x3e60ec70	0.21965194
225	0x3df33a9f	0.118764155
226	0x3ecb229b	0.3967484
227	0x3e0d53fa	0.13801566
228	0x3e7fc47e	0.249773
229	0xbefc11ce	-0.49232334
230	0xbeadf112	-0.33972985
231	0xbe608c41	-0.21928503
232	0xbc7df1f4	-0.015499581
233	0x3eacdfec	0.3376459
234	0xbd90a004	-0.070617706
235	0x3e86ec28	0.26352048
236	0xbd603d2d	-0.05474584
237	0x3ce7d2b7	0.028298719
238	0x3d95f963	0.07322957
239	0x3e7bc0a5	0.24585207
240	0xbcfade0d	-0.03062346
241	0xbbf1cbb0	-0.007379018
242	0xbd3e731c	-0.046496496
243	0xbb104cb3	-0.0022018373
244	0x3c3fce9a	0.0117069725
245	0xbc779c2f	-0.015112921
246	0xbdd8a373	-0.105780505
247	0xbb57c07b	-0.0032921124
248	0x3eda923b	0.4268969
249	0x3e81a6b0	0.25322485
250	0x3e73d2ee	0.23810932
251	0x3d59ecee	0.05320447
252	0x3e34ce1a	0.17656747
253	0xbdce7bf1	-0.10082234
254	0xbdc27637	-0.09495204
255	0xbcc02e76	-0.023459654

mlp_extractor.value_net.0.bias f4 [64]
0	0xba8ff99e	-0.0010984426
1	0xbdbdd4a3	-0.09269073
2	0x3bc335a7	0.0059573236
3	0x3e69a73e	0.22817704
4	0x3eb13cf0	0.34616804
5	0x3e18e6d8	0.1493181
6	0x3e886437	0.26638958
7	0x3ece8bf3	0.40341148
8	0xbef46a31	-0.47737268
9	0xbe19b3c1	-0.15009977
10	0xbe15293a	-0.14566508
11	0x3b288561	0.0025714266
12	0xbef81d1b	-0.48459706
13	0x3e71fd78	0.23631847
14	0x3ee1dadb	0.44112286
15	0x3e5a972c	0.2134673
16	0xbe3d000e	-0.18457052
17	0xbe842716	-0.2581107
18	0x3e241281	0.16022684
19	0x3e3b80d3	0.18310861
20	0x3dc66309	0.09686858
21	0x3f071a67	0.5277466
22	0x3e33879c	0.175322
23	0x3e9dfbdc	0.30856216
24	0xbef9368a	-0.48674423
25	0xbe5adcbb	-0.21373264
26	0xbd8f87ca	-0.070083216
27	0x3e58a4b9	0.21156587
28	0x3d3fbe62	0.046812423
29	0xbe80075f	-0.25005624
30	0x3dd08dbd	0.101832844
31	0xbb7cb5ec	-0.0038560582
32	0xbe9b9681	-0.30388263
33	0x3e3b694a	0.18301883
34	0xbe85e965	-0.26154628
35	0xbe114a0b	-0.14188401
36	0x3f04c774	0.5186684
37	0xbf18a941	-0.5963326
38	0xbef28d96	-0.47373646
39	0x3ef6f0c2	0.4823056
40	0x3e0a0562	0.13478616
41	0x3ee19b65	0.4406387
42	0x3e887890	0.26654482
43	0xbe17f78a	-0.14840522
44	0xbf011a37	-0.50430626
45	0xbe3d8681	-0.1850834
46	0xbe5befaa	-0.21478143
47	0xbe13dc42	-0.1443949
48	0x3e39e5d8	0.18154085
49	0xbf149974	-0.5804665
50	0x3e223b75	0.15842994
51	0xbe3eda74	-0.18638021
52	0x3f19beb3	0.6005661
53	0xbe8f87dc	-0.2803334
54	0xbd24fe11	-0.04028136
55	0x3def7365	0.11691932
56	0x3df2e55a	0.118601516
57	0xbd92495a	-0.07142897
58	0x3e09cd62	0.13457254
59	0xbe3eaea9	-0.18621315
60	0x3ec06d9d	0.37583628
61	0x3f2120ed	0.62940866
62	0x3e1399e1	0.14414169
63	0x3cce6b38	0.02519761

mlp_extractor.value_net.2.weight f4 [64, 64]
0	0xbe63871b	-0.22219507
1	0xbe31fff9	-0.17382802
2	0x3d299664	0.04140319
3	0xbc5aeca7	-0.013362086
4	0x3e116138	0.14197242
5	0xbee46408	-0.44607568
6	0xbe493937	-0.19650732
7	0xbf1914da	-0.5979744
8	0xbd12996c	-0.035790846
9	0xbdd7a55f	-0.10529589
10	0xbd814b3b	-0.06313177
11	0xbec06eaa	-0.3758443
12	0x3e819b3b	0.25313744
13	0x3e1b8a65	0.15189512
14	0x3d1ba640	0.038000345
15	0x3e347d24	0.17625862
16	0xbd86c2db	-0.065801345
17	0xbe6fc758	-0.23415887
18	0xbe4123cc	-0.18861312
19	0x3d0518e3	0.032494437
20	0xbe516f06	-0.20452508
21	0xbf1b6d2e	-0.6071347
22	0xbd4303b0	-0.04761094
23	0x3e1729c5	0.14762028
24	0xbc512127	-0.012764252
25	0x3d4af915	0.04955395
26	0xbd17f4f6	-0.037098847
27	0x3e6077a1	0.21920635
28	0xbc6e0d12	-0.014529483
29	0xb9f155d2	-0.00046031043
30	0xbd8dfa42	-0.069324985
31	0xbd813e7b	-0.06310745
32	0xbe252310	-0.16126657
33	0x3e85071a	0.2598198
34	0x3e681fa4	0.2266832
35	0xbc9276ec	-0.017878972
36	0x3c110aa4	0.008852635
37	0x3e9a2711	0.3010793
38	0x3f1e03df	0.61724657
39	0xbe492eca	-0.19646755
40	0x3ea3c96a	0.31989604
41	0xbd10e4bd	-0.03537439
42	0x3e9e3045	0.30896202
43	0xbd260055	-0.04052766
44	0xbd51599e	-0.051110856
45	0x3dbd8d04	0.09255412
46	0x3e473391	0.19453265
47	0xbea693f9	-0.3253477
48	0xbee240ae	-0.44189972
49	0x3eaaf1be	0.3338756
50	0x3cbb6259	0.022874044
51	0x3dd1ae8d	0.10238371
52	0xbd825df0	-0.063655734
53	0x3ed38da1	0.41318992
54	0xbd0d0a92	-0.03443391
55	0x3e2fda67	0.17173158
56	0x3e5de464	0.21669155
57	0x3cdde8ff	0.02708864
58	0x3decc811	0.11561597
59	0x3e9acdf3	0.30235252
60	0x3d1221dd	0.035676826
61	0xbd57addc	-0.05265604
62	0x3dc63770	0.096785426
63	0xbeebc34d	-0.4604744
64	0x3ebe0dad	0.3711981
65	0xbe5ac7bf	-0.2136526
66	0xba6b7afa	-0.00089828635
67	0xbde7f598	-0.1132614
68	0xbec05750	-0.37566614
69	0xbec9f23d	-0.39442626
70	0xbd54d860	-0.051964164
71	0xbe17bb95	-0.1481765
72	0xbddb4d9d	-0.10708163
73	0xbe33761f	-0.17525528
74	0xbdaa6693	-0.08320346
75	0xbe4d7f61	-0.20068122
76	0x3e08e1f1	0.1336744
77	0xbe75c733	-0.2400177
78	0xbeb26e98	-0.3485
79	0xbdc16c82	-0.09444524
80	0xbd98d2fd	-0.07462118
81	0x3ec68edc	0.38780868
82	0x3db811cd	0.0898777
83	0xbed03416	-0.40664738
84	0x3c8bb734	0.017055131
85	0xbde3be54	-0.111202866
86	0x3d5f8c40	0.054577112
87	0xbc6e1ebc	-0.014533695
88	0x3e218d5e	0.15776584
89	0x3c663f6c	0.014053207
90	0xbe8e8b65	-0.27840725
91	0x3c6ad1df	0.014332264
92	0x3d906930	0.07051313
93	0xbe300db6	-0.1719273
94	0xbec5824b	-0.38575968
95	0xbe3d3dc2	-0.1848059
96	0xbddc0b27	-0.10744315
97	0x3d92d701	0.07169915
98	0xbda72c33	-0.08162727
99	0x3dc327b0	0.09529054
100	0xbe193f69	-0.14965595
101	0xbd324d2e	-0.043530636
102	0x3dec99d9	0.115527816
103	0xbe9bf641	-0.30461314
104	0x3eaa27b2	0.3323341
105	0xbd90f848	-0.07078606
106	0x3d47c534	0.048772052
107	0x3e0a13d0	0.1348412
108	0x3df94960	0.12172198
109	0xbe8c5333	-0.27407226
110	0x3e80795c	0.2509259
111	0x3e22bbe1	0.15891983
112	0xbe574d47	-0.21025573
113	0xbdbdcec2	-0.092679515
114	0x3e419d91	0.18907763
115	0xbec7aff4	-0.3900143
116	0x3d09e960	0.03366983
117	0x3d8d8e3f	0.06911897
118	0x3debbf4f	0.115110986
119	0xbd2a8816	-0.041633688
120	0x3d584652	0.052801438
121	0x3ccf21dc	0.0252847
122	0x3e1149ce	0.1418831
123	0x3d5cb4fd	0.05388354
124	0x3da6a7c3	0.08137467
125	0x3e476196	0.1947082
126	0x3e11691a	0.1420025
127	0xbe634f25	-0.2219816
128	0xbd4504f2	-0.04810042
129	0xbcbc0dfb	-0.022955885
130	0x3de01d2d	0.10943065
131	0x3c0d67ee	0.008630736
132	0x3ecbaea3	0.39781675
133	0x3d9f8083	0.077881835
134	0xbded1a9f	-0.11577343
135	0xbeaa32a4	-0.3324176
136	0x3e0689b1	0.13138463
137	0xbb91f628	-0.004454393
138	0xbd5d6997	-0.054055776
139	0x3e9f654d	0.31131974
140	0x3dfe7c78	0.12426084
141	0x3e0ebbd0	0.13938832
142	0x3dc7e7fd	0.09761045
143	0x3da989c4	0.0827823
144	0xbea24d10	-0.3169942
145	0xbdd5ccf7	-0.104394846
146	0xbe02298e	-0.12711164
147	0x3d580701	0.052741054
148	0x3e8d951f	0.27652833
149	0xbdf6ed43	-0.12056973
150	0x3e5d6dd6	0.2162393
151	0xbe629ff7	-0.22131334
152	0xbe95997a	-0.29218656
153	0xbe7f010a	-0.2490274
154	0xbe369715	-0.1783107
155	0x3d5cd04c	0.053909585
156	0xbe3db0a1	-0.1852441
157	0xbc9b5cff	-0.018965242
158	0xbde93795	-0.113875546
159	0x3df7133f	0.12064218
160	0x3dc17119	0.094454
161	0xbaac285a	-0.0013134584
162	0xbdc6c555	-0.09705607
163	0xbc578836	-0.013155034
164	0x3ed51d14	0.41623747
165	0xbd9972db	-0.0749261
166	0xbe027fe4	-0.12744099
167	0x3f27db66	0.6556915
168	0x3e2080e3	0.15674166
169	0x3db800cb	0.08984526
170	0x3db7cecd	0.08974991
171	0xbcb8fd67	-0.02258177
172	0xbe59560d	-0.21224232
173	0x3a3a95c0	0.00071176514
174	0xbe19c1b1	-0.15015294
175	0x3d536179	0.05160663
176	0xbe9ab770	-0.30218077
177	0x3f15be3e	0.5849341
178	0xbe621308	-0.22077572
179	0x3e199dfa	0.1500167
180	0x3e21d13c	0.15802473
181	0xbd14b265	-0.036302943
182	0x3ea35cff	0.31906888
183	0xbe58ffc0	-0.21191311
184	0xbe0b7ef4	-0.13622648
185	0x3de048cc	0.10951385
186	0x3e27a880	0.16372871
187	0xbdf1b16d	-0.118014194
188	0x3f116898	0.5680022
189	0x3e96e5e7	0.29472277
190	0x3cd0a936	0.025471311
191	0x3c50cfa1	0.012744815
192	0x3e440237	0.1914147
193	0x3d8990b7	0.06717055
194	0xbe801599	-0.25016478
195	0x3e81e6ef	0.253715
196	0x3ecfe730	0.4060607
197	0x3d8037bc	0.062606305
198	0x3e86ef36	0.26354378
199	0xbc957228	-0.01824291
200	0xbf05a38f	-0.52202696
201	0xbdcd01ba	-0.10010095
202	0x3dcb47c3	0.09925797
203	0x3e82a524	0.25516617
204	0x3eb18136	0.34668893
205	0x3e88265b	0.26591763
206	0x3ef01d99	0.4689758
207	0x3c79cfd9	0.015247309
208	0xbe324430	-0.17408824
209	0xbbbbc32a	-0.0057300525
210	0xbe893f67	-0.26806185
211	0x3e2cd10a	0.16876617
212	0xbe45a901	-0.19302751
213	0xbd0c0af1	-0.034190122
214	0x3e9dc9be	0.3081798
215	0x3cf5b70f	0.029994516
216	0xbeedc5b4	-0.46439898
217	0x3dea999e	0.114550814
218	0x3e0b7a62	0.13620904
219	0x3e2cc742	0.16872886
220	0x3d266e56	0.04063257
221	0x3d1e34c6	0.038624547
222	0x3e38f8da	0.1806368
223	0x3e6162e5	0.22010382
224	0x3cbd0d7e	0.023077723
225	0x3e5c20f7	0.2149695
226	0x3e4f3e65	0.20238645
227	0xbe466b03	-0.19376759
228	0x3ee9a7dd	0.45635882
229	0xbd80f744	-0.06297162
230	0xbd5e48dd	-0.054268707
231	0x3dea2d64	0.11434439
232	0x3dca9c47	0.09893089
233	0x3e917b7a	0.28414518
234	0xbe88d935	-0.26728216
235	0xbdab2875	-0.08357326
236	0xbe060723	-0.1308866
237	0x3e35b080	0.1774311
238	0xbe64c130	-0.2233932
239	0x3d916e11	0.071010716
240	0xbe8f419d	-0.27979746
241	0x3d500f09	0.05079559
242	0xbea7a149	-0.32740238
243	0xbe38e318	-0.1805538
244	0x3d71911a	0.05897627
245	0x3dacf53d	0.08445213
246	0x3eb348d2	0.35016495
247	0x3e9c1cca	0.30490714
248	0x3e96309d	0.29333964
249	0xbe56e360	-0.20985174
250	0x3d1e8453	0.038700413
251	0xbe1db1b1	-0.15399815
252	0x3eaf496a	0.34235698
253	0x3f05fb1d	0.52336293
254	0x3dcd77b7	0.100325994
255	0x3cfa1b07	0.030530466

mlp_extractor.value_net.2.bias f4 [64]
0	0x3c5cbb1d	0.013472346
1	0x3c5ff3fc	0.01366901
2	0x3c69006c	0.014221292
3	0x3c107579	0.00881707
4	0x3dbc93f9	0.09207911
5	0x3df2902e	0.11843906
6	0xbd78ad8a	-0.060712375
7	0x3c1011b6	0.008793285
8	0xbdc58717	-0.09644907
9	0xbdee03a7	-0.116217904
10	0xbc836c7c	-0.01604294
11	0xbd02d91e	-0.03194534
12	0xbc522537	-0.0128262555
13	0x3d3816b5	0.04494353
14	0xbdf98242	-0.12183048
15	0x3e0b8040	0.13623142
16	0x3db27033	0.087128066
17	0x3d9114c8	0.07084042
18	0xba02338b	-0.0004966787
19	0x3c200cba	0.009768659
20	0xbdd0d3ed	-0.10196672
21	0x3e26cb4b	0.16288488
22	0x3db51633	0.08842125
23	0xbe08c265	-0.13355406
24	0x3d5c93c9	0.053851876
25	0xbc5f662d	-0.0136352
26	0xbd10dd57	-0.035367336
27	0x3c7e2ca9	0.0155135775
28	0xbd216b36	-0.039408885
29	0xbdbd7e34	-0.09252587
30	0xbdb35a22	-0.08757426
31	0x3d3ef0a3	0.046616208
32	0x3d2a74b0	0.041615188
33	0x3e05d5d1	0.13069846
34	0x3e1fe237	0.15613638
35	0xbd39c0a4	-0.045349732
36	0xbd00a582	-0.03140784
37	0x3d508af3	0.050913762
38	0x3cf1a321	0.029496731
39	0x3e03b765	0.12862928
40	0xbdd1e362	-0.10248448
41	0xbdae31d8	-0.08505601
42	0xbdba9756	-0.09110896
43	0x3d1af900	0.03783512
44	0x3daccd2a	0.084375694
45	0x3d5f2a09	0.054483447
46	0x3d6994c1	0.05702663
47	0xbe17011d	-0.14746518
48	0xbe12ec5b	-0.14347975
49	0x3e143472	0.14473131
50	0x3d914752	0.070936814
51	0x3d47990d	0.048729945
52	0x3d48c518	0.04901609
53	0x3df30ff2	0.11868276
54	0xbd573cb6	-0.052548133
55	0xbd952907	-0.07283216
56	0xbca830bf	-0.020531056
57	0xbdae9b2d	-0.08525691
58	0x3dc60cf4	0.09670439
59	0x3dcbd087	0.09951883
60	0xbd393ef1	-0.04522604
61	0xbceff4d9	-0.029291557
62	0xbcc27aa9	-0.02374013
63	0xbc888814	-0.01666645

action_net.weight f4 [2, 64]
0	0x3cd88b2e	0.026433554
1	0x3d97c417	0.07410448
2	0x3cfabbd4	0.030607142
3	0x3def29d1	0.11677898
4	0x3dfd8a21	0.123798616
5	0xbc740cf1	-0.014895664
6	0xbdcbd6e9	-0.099531
7	0x3d56f55d	0.05248009
8	0x3e04f587	0.12984286
9	0x3e1cbb28	0.1530577
10	0x3d471e32	0.04861278
11	0x3dc480c1	0.0959487
12	0x3dd3dcf6	0.10344879
13	0xbdf5c668	-0.120007336
14	0x3e1d565a	0.15364972
15	0x3d6b134a	0.057391442
16	0x3d07513a	0.033036448
17	0xbdee9837	-0.116501264
18	0xbd3e7b92	-0.046504565
19	0xbdc0bbf4	-0.09410849
20	0xbd5db421	-0.054126862
21	0xbe05d2ef	-0.13068746
22	0xbd36abd4	-0.04459746
23	0x3d971f96	0.073790714
24	0xbdfeb69e	-0.12437175
25	0x3dddf2e7	0.108373456
26	0xbd40933c	-0.047015414
27	0x3de57a2e	0.112049446
28	0xbd167c95	-0.036739904
29	0x3d7ebfe0	0.062194705
30	0xbe592762	-0.2120643
31	0xbd902e5d	-0.07040093
32	0xbd284424	-0.04108061
33	0xbd8a4d25	-0.067529954
34	0x3cf3a4bd	0.02974164
35	0xbd72b71e	-0.059256665
36	0x3c20b80d	0.009809506
37	0x3dbaddf6	0.09124367
38	0xbd94e60a	-0.07270439
39	0x3dd75770	0.10514724
40	0xbd6dd9de	-0.058069102
41	0x3cd6e842	0.026233796
42	0x3d8c4c2f	0.06850468
43	0xbe389456	-0.18025336
44	0x3d8d6be1	0.06905342
45	0x3cec778d	0.0288656
46	0xbe30703a	-0.17230311
47	0x3e14874a	0.14504734
48	0x3d814c1c	0.06313345
49	0xbe0b7c06	-0.1362153
50	0xbe1b8ebf	-0.15191172
51	0xbd945313	-0.07242408
52	0xbdac4a2f	-0.08412587
53	0x3e00f228	0.12592375
54	0xbe074313	-0.1320918
55	0xbd7e2d31	-0.062054817
56	0x3ddf0853	0.108902596
57	0x3d04ad1e	0.03239166
58	0xbe0c465d	-0.13698716
59	0xbe045cb0	-0.12925982
60	0xbe08b2fe	-0.1334953
61	0xbda7613a	-0.08172841
62	0x3e04a2fd	0.129528
63	0x3e21bdc5	0.15795048
64	0xbcd63b9b	-0.026151469
65	0xbd950ede	-0.07278226
66	0xbcfb6bd6	-0.030691069
67	0xbdefb0a4	-0.117036134
68	0xbdfe31ff	-0.1241188
69	0x3c82f32e	0.015985098
70	0x3dcf4a3a	0.101215795
71	0xbd5d5dc8	-0.054044515
72	0xbe06a015	-0.13147004
73	0xbe1ed266	-0.15509948
74	0xbd4e6663	-0.050390612
75	0xbdc68384	-0.09693053
76	0xbdd9ada0	-0.106288195
77	0x3dee53b5	0.116370596
78	0xbe19ff75	-0.15038855
79	0xbd63b5fc	-0.055593476
80	0xbd0bf97c	-0.034173474
81	0x3df14ae9	0.11781866
82	0x3d44082a	0.04785935
83	0x3dbf3b4f	0.09337484
84	0x3d581cdc	0.052761897
85	0x3e05b0f2	0.1305578
86	0x3d3481f6	0.044069253
87	0xbd99b884	-0.07505897
88	0x3dfb822e	0.12280689
89	0xbdda0135	-0.106447615
90	0x3d440ee6	0.04786577
91	0xbde0093c	-0.10939261
92	0x3d124a6d	0.03571551
93	0xbd7685eb	-0.060186308
94	0x3e59d74f	0.2127354
95	0x3d9440ae	0.07238899
96	0x3d2a5f52	0.04159481
97	0x3d89b010	0.067230344
98	0xbd02ed40	-0.03196454
99	0x3d779791	0.06044728
100	0xbc3d1c72	-0.011542426
101	0xbdb8bc9d	-0.0902035
102	0x3d99615b	0.07489272
103	0xbdd8d063	-0.105866216
104	0x3d74f89c	0.059807405
105	0xbccbe48f	-0.024889259
106	0xbd923b8b	-0.07140263
107	0x3e394ff6	0.18096909
108	0xbd8d8d18	-0.06911677
109	0xbcfea4cd	-0.031084443
110	0x3e341926	0.17587718
111	0xbe176399	-0.14784087
112	0xbd7af1cd	-0.061265755
113	0x3e0b5f49	0.13610567
114	0x3e1a9c4f	0.1509869
115	0x3d93678b	0.07197484
116	0x3da8fe95	0.08251683
117	0xbe01c743	-0.12673669
118	0x3e05c0e5	0.13061865
119	0x3d7724d8	0.06033787
120	0xbdda9679	-0.10673232
121	0xbcfa4a90	-0.030553132
122	0x3e0fd409	0.14045729
123	0x3e060c89	0.1309072
124	0x3e070ad0	0.13187718
125	0x3da7d0e5	0.0819414
126	0xbe029e5d	-0.12755723
127	0xbe25ba7e	-0.16184422

action_net.bias f4 [2]
0	0x3d70bb36	0.05877229
1	0xbd70bb3a	-0.058772303

value_net.weight f4 [1, 64]
0	0xbfb14ab6	-1.3850925
1	0xbfa746af	-1.3068446
2	0x3fbd0522	1.4767191
3	0x3f9fa79f	1.2473029
4	0x3faa080f	1.3283709
5	0x3fa3d9d6	1.2800853
6	0xbfad5b8f	-1.3543566
7	0x3fbeafaf	1.4897364
8	0xbfbc0278	-1.4688253
9	0xbfab42aa	-1.3379719
10	0xbfc48d22	-1.535557
11	0x3fa42402	1.2823489
12	0x3fa936c9	1.3219844
13	0x3fadb375	1.3570391
14	0xbfa9a0f1	-1.325224
15	0x3f9e65f7	1.2374867
16	0x3fa4b725	1.2868391
17	0xbfa30dce	-1.2738588
18	0xbfa4a51f	-1.2862891
19	0xbfa98129	-1.3242542
20	0xbfacf5b8	-1.3512487
21	0x3fbecfb0	1.4907131
22	0x3fbe4930	1.4866085
23	0xbfa57cca	-1.2928708
24	0x3fa982c6	1.3243034
25	0x3fa7ac18	1.3099394
26	0xbfb3269f	-1.3996161
27	0x3fb92ac4	1.4466176
28	0x3faae33b	1.3350595
29	0xbfbe3079	-1.4858543
30	0xbfab7b2c	-1.3396964
31	0x3fa8fb43	1.3201679
32	0x3fb45224	1.4087567
33	0x3fb96103	1.4482731
34	0x3fa7443e	1.3067701
35	0xbfbd4194	-1.4785638
36	0xbfa6f5ed	-1.30438
37	0xbfadb0ac	-1.3569541
38	0x3fb0f708	1.3825388
39	0x3fc9b72f	1.5759028
40	0xbfb14c6d	-1.3851448
41	0xbf9e97fb	-1.2390131
42	0xbfac3252	-1.3452857
43	0xbf9fb623	-1.2477459
44	0x3fac0f95	1.3442255
45	0x3f9ffdc5	1.2499319
46	0x3fbe49f2	1.4866316
47	0xbfc8d5fd	-1.5690304
48	0xbfd3a21a	-1.6533844
49	0xbf9d396e	-1.2283151
50	0x3fae7bba	1.3631508
51	0x3fad80b2	1.35549
52	0x3faa9127	1.3325547
53	0x3fad8631	1.3556577
54	0xbfb87fc9	-1.4413997
55	0xbfb063db	-1.3780473
56	0x3fa613f8	1.2974844
57	0xbfa187bc	-1.2619548
58	0x3fa86f72	1.315901
59	0x3fa809e2	1.3128016
60	0xbfaa737c	-1.3316493
61	0xbfa6b9bd	-1.3025433
62	0xbfa58942	-1.2932513
63	0x3fc1adf1	1.5131208
